{"format": "torch", "nodes": [{"name": "act_net", "id": 140240014700352, "class_name": "ProbabilisticNet(\n  (preprocess): MLP(\n    (model): Sequential(\n      (0): Linear(in_features=17, out_features=256, bias=True)\n      (1): ReLU()\n      (2): Linear(in_features=256, out_features=256, bias=True)\n      (3): ReLU()\n      (4): Linear(in_features=256, out_features=256, bias=True)\n      (5): ReLU()\n      (6): Linear(in_features=256, out_features=256, bias=True)\n    )\n  )\n  (mu): MLP(\n    (model): Sequential(\n      (0): Linear(in_features=256, out_features=6, bias=True)\n    )\n  )\n  (logvar): MLP(\n    (model): Sequential(\n      (0): Linear(in_features=256, out_features=6, bias=True)\n    )\n  )\n)", "parameters": [["min_logvar", [1, 6]], ["max_logvar", [1, 6]], ["preprocess.model.0.weight", [256, 17]], ["preprocess.model.0.bias", [256]], ["preprocess.model.2.weight", [256, 256]], ["preprocess.model.2.bias", [256]], ["preprocess.model.4.weight", [256, 256]], ["preprocess.model.4.bias", [256]], ["preprocess.model.6.weight", [256, 256]], ["preprocess.model.6.bias", [256]], ["mu.model.0.weight", [6, 256]], ["mu.model.0.bias", [6]], ["logvar.model.0.weight", [6, 256]], ["logvar.model.0.bias", [6]]], "output_shape": [[256, 6], [256, 6]], "num_parameters": [6, 6, 4352, 256, 65536, 256, 65536, 256, 65536, 256, 1536, 6, 1536, 6]}, {"name": "obs_net", "id": 140240017294096, "class_name": "ProbabilisticNet(\n  (preprocess): MLP(\n    (model): Sequential(\n      (0): Linear(in_features=23, out_features=256, bias=True)\n      (1): ReLU()\n      (2): Linear(in_features=256, out_features=256, bias=True)\n      (3): ReLU()\n      (4): Linear(in_features=256, out_features=256, bias=True)\n      (5): ReLU()\n      (6): Linear(in_features=256, out_features=256, bias=True)\n    )\n  )\n  (mu): MLP(\n    (model): Sequential(\n      (0): Linear(in_features=256, out_features=17, bias=True)\n    )\n  )\n  (logvar): MLP(\n    (model): Sequential(\n      (0): Linear(in_features=256, out_features=17, bias=True)\n    )\n  )\n)", "parameters": [["min_logvar", [1, 17]], ["max_logvar", [1, 17]], ["preprocess.model.0.weight", [256, 23]], ["preprocess.model.0.bias", [256]], ["preprocess.model.2.weight", [256, 256]], ["preprocess.model.2.bias", [256]], ["preprocess.model.4.weight", [256, 256]], ["preprocess.model.4.bias", [256]], ["preprocess.model.6.weight", [256, 2
…
